input: "data"
input_shape {
  dim: 1
  dim: 1
  dim: 33
  dim: 33
  dim: 33
}

input: "label"
input_shape {
  dim: 1
  dim: 1
  dim: 21
  dim: 21
  dim: 21
}

layer {
  name: "conv1"
  type: "Convolution"
  bottom: "data"
  top: "conv1"
  param {
    lr_mult: 1
  }
  param {
    lr_mult: 0.1
  }
  convolution_param {
    num_output: 64
    kernel_size: 9

    stride: 1
    pad: 0
    weight_filler {
      type: "gaussian"
      std: 0.001
    }
    bias_filler {
      type: "constant"
      value: 0
    }
    engine: CAFFE
  }
}

layer {
  name: "relu1"
  type: "ReLU"
  bottom: "conv1"
  top: "conv1"
  relu_param{
    engine: CAFFE
  }
}

layer {
  name: "conv2"
  type: "Convolution"
  bottom: "conv1"
  top: "conv2"
  param {
    lr_mult: 1
  }
  param {
    lr_mult: 0.1
  }
  convolution_param {
    num_output: 32
    kernel_size: 1
    stride: 1
    pad: 0
    weight_filler {
      type: "gaussian"
      std: 0.001
    }
    bias_filler {
      type: "constant"
      value: 0
    }
    engine: CAFFE
  }
}

layer {
  name: "relu2"
  type: "ReLU"
  bottom: "conv2"
  top: "conv2"
  relu_param{
    engine: CAFFE
  }
}

layer {
  name: "conv3"
  type: "Convolution"
  bottom: "conv2"
  top: "conv3"
  param {
    lr_mult: 1
  }
  param {
    lr_mult: 0.1
  }
  convolution_param {
    num_output: 1
    kernel_size: 5
    stride: 1
    pad: 0
    weight_filler {
      type: "gaussian"
      std: 0.001
    }
    bias_filler {
      type: "constant"
      value: 0
    }
    engine: CAFFE
  }
}

layer {
  name: "flatdata"
  type: "Flatten"
  bottom: "conv3"
  top: "conv3_fl"
}

layer {
  name: "flatdata"
  type: "Flatten"
  bottom: "label"
  top: "label_fl"
}

layer {
  name: "loss"
  type: "EuclideanLoss"
  bottom: "conv3_fl"
  bottom: "label_fl"
  top: "loss"
}
